…
全局类别分布: {0: 47, 1: 130}
===========================

模型架构:
Model: "model"
__________________________________________________________________________________________________
Layer (type)                    Output Shape         Param #     Connected to                     
==================================================================================================
input_1 (InputLayer)            [(None, 399, 12)]    0                                            
__________________________________________________________________________________________________
conv1d (Conv1D)                 (None, 399, 8)       1536        input_1[0][0]                    
__________________________________________________________________________________________________
batch_normalization (BatchNorma (None, 399, 8)       32          conv1d[0][0]                     
__________________________________________________________________________________________________
re_lu (ReLU)                    (None, 399, 8)       0           batch_normalization[0][0]        
__________________________________________________________________________________________________
conv1d_2 (Conv1D)               (None, 399, 11)      1408        re_lu[0][0]                      
__________________________________________________________________________________________________
batch_normalization_2 (BatchNor (None, 399, 11)      44          conv1d_2[0][0]                   
__________________________________________________________________________________________________
re_lu_2 (ReLU)                  (None, 399, 11)      0           batch_normalization_2[0][0]      
__________________________________________________________________________________________________
dropout (Dropout)               (None, 399, 11)      0           re_lu_2[0][0]                    
__________________________________________________________________________________________________
conv1d_3 (Conv1D)               (None, 399, 11)      1936        dropout[0][0]                    
__________________________________________________________________________________________________
conv1d_1 (Conv1D)               (None, 399, 11)      88          re_lu[0][0]                      
__________________________________________________________________________________________________
batch_normalization_3 (BatchNor (None, 399, 11)      44          conv1d_3[0][0]                   
__________________________________________________________________________________________________
batch_normalization_1 (BatchNor (None, 399, 11)      44          conv1d_1[0][0]                   
__________________________________________________________________________________________________
re_lu_3 (ReLU)                  (None, 399, 11)      0           batch_normalization_3[0][0]      
__________________________________________________________________________________________________
re_lu_1 (ReLU)                  (None, 399, 11)      0           batch_normalization_1[0][0]      
__________________________________________________________________________________________________
dropout_1 (Dropout)             (None, 399, 11)      0           re_lu_3[0][0]                    
__________________________________________________________________________________________________
add (Add)                       (None, 399, 11)      0           re_lu_1[0][0]                    
                                                                 dropout_1[0][0]                  
__________________________________________________________________________________________________
re_lu_4 (ReLU)                  (None, 399, 11)      0           add[0][0]                        
__________________________________________________________________________________________________
conv1d_4 (Conv1D)               (None, 399, 11)      1936        re_lu_4[0][0]                    
__________________________________________________________________________________________________
batch_normalization_4 (BatchNor (None, 399, 11)      44          conv1d_4[0][0]                   
__________________________________________________________________________________________________
re_lu_5 (ReLU)                  (None, 399, 11)      0           batch_normalization_4[0][0]      
__________________________________________________________________________________________________
dropout_2 (Dropout)             (None, 399, 11)      0           re_lu_5[0][0]                    
__________________________________________________________________________________________________
conv1d_5 (Conv1D)               (None, 399, 11)      1936        dropout_2[0][0]                  
__________________________________________________________________________________________________
batch_normalization_5 (BatchNor (None, 399, 11)      44          conv1d_5[0][0]                   
__________________________________________________________________________________________________
re_lu_6 (ReLU)                  (None, 399, 11)      0           batch_normalization_5[0][0]      
__________________________________________________________________________________________________
dropout_3 (Dropout)             (None, 399, 11)      0           re_lu_6[0][0]                    
__________________________________________________________________________________________________
add_1 (Add)                     (None, 399, 11)      0           re_lu_4[0][0]                    
                                                                 dropout_3[0][0]                  
__________________________________________________________________________________________________
re_lu_7 (ReLU)                  (None, 399, 11)      0           add_1[0][0]                      
__________________________________________________________________________________________________
conv1d_6 (Conv1D)               (None, 399, 11)      1936        re_lu_7[0][0]                    
__________________________________________________________________________________________________
batch_normalization_6 (BatchNor (None, 399, 11)      44          conv1d_6[0][0]                   
__________________________________________________________________________________________________
re_lu_8 (ReLU)                  (None, 399, 11)      0           batch_normalization_6[0][0]      
__________________________________________________________________________________________________
dropout_4 (Dropout)             (None, 399, 11)      0           re_lu_8[0][0]                    
__________________________________________________________________________________________________
conv1d_7 (Conv1D)               (None, 399, 11)      1936        dropout_4[0][0]                  
__________________________________________________________________________________________________
batch_normalization_7 (BatchNor (None, 399, 11)      44          conv1d_7[0][0]                   
__________________________________________________________________________________________________
re_lu_9 (ReLU)                  (None, 399, 11)      0           batch_normalization_7[0][0]      
__________________________________________________________________________________________________
dropout_5 (Dropout)             (None, 399, 11)      0           re_lu_9[0][0]                    
__________________________________________________________________________________________________
add_2 (Add)                     (None, 399, 11)      0           re_lu_7[0][0]                    
                                                                 dropout_5[0][0]                  
__________________________________________________________________________________________________
re_lu_10 (ReLU)                 (None, 399, 11)      0           add_2[0][0]                      
__________________________________________________________________________________________________
flatten (Flatten)               (None, 4389)         0           re_lu_10[0][0]                   
__________________________________________________________________________________________________
dense (Dense)                   (None, 2)            8780        flatten[0][0]                    
==================================================================================================
Total params: 21,832
Trainable params: 21,662
Non-trainable params: 170
__________________________________________________________________________________________________
===========================

第 1 折训练集分布: {0: 23, 1: 23}
第 1 折验证集分布: {0: 23, 1: 23}


=== 第 1 折 评估结果 ===
…
